…
l', 2): 214354, ('train', 37): 4437, ('val', 64): 214354, ('val', 53): 214354, ('train', 99): 4438, ('val', 40): 214354, ('train', 20): 4437, ('train', 82): 4438, ('train', 25): 4437, ('val', 25): 214354, ('train', 71): 4438, ('train', 10): 4438, ('val', 87): 214354, ('val', 12): 214354, ('train', 72): 4437, ('train', 63): 4438, ('val', 74): 214354, ('val', 63): 214354}
ques vocab size: 22227
ans vocab size: 1001
Files already downloaded and verified
Files already downloaded and verified
VQAModel(
  (image_channel): ImageEmbedding(
    (extractor): VGG(
      (features): Sequential(
        (0): Conv2d(3, 64, kernel_size=(3, 3), stride=(1, 1), padding=(1, 1))
        (1): ReLU(inplace)
        (2): Conv2d(64, 64, kernel_size=(3, 3), stride=(1, 1), padding=(1, 1))
        (3): ReLU(inplace)
        (4): MaxPool2d(kernel_size=2, stride=2, padding=0, dilation=1, ceil_mode=False)
        (5): Conv2d(64, 128, kernel_size=(3, 3), stride=(1, 1), padding=(1, 1))
        (6): ReLU(inplace)
        (7): Conv2d(128, 128, kernel_size=(3, 3), stride=(1, 1), padding=(1, 1))
        (8): ReLU(inplace)
        (9): MaxPool2d(kernel_size=2, stride=2, padding=0, dilation=1, ceil_mode=False)
        (10): Conv2d(128, 256, kernel_size=(3, 3), stride=(1, 1), padding=(1, 1))
        (11): ReLU(inplace)
        (12): Conv2d(256, 256, kernel_size=(3, 3), stride=(1, 1), padding=(1, 1))
        (13): ReLU(inplace)
        (14): Conv2d(256, 256, kernel_size=(3, 3), stride=(1, 1), padding=(1, 1))
        (15): ReLU(inplace)
        (16): Conv2d(256, 256, kernel_size=(3, 3), stride=(1, 1), padding=(1, 1))
        (17): ReLU(inplace)
        (18): MaxPool2d(kernel_size=2, stride=2, padding=0, dilation=1, ceil_mode=False)
        (19): Conv2d(256, 512, kernel_size=(3, 3), stride=(1, 1), padding=(1, 1))
        (20): ReLU(inplace)
        (21): Conv2d(512, 512, kernel_size=(3, 3), stride=(1, 1), padding=(1, 1))
        (22): ReLU(inplace)
        (23): Conv2d(512, 512, kernel_size=(3, 3), stride=(1, 1), padding=(1, 1))
        (24): ReLU(inplace)
        (25): Conv2d(512, 512, kernel_size=(3, 3), stride=(1, 1), padding=(1, 1))
        (26): ReLU(inplace)
        (27): MaxPool2d(kernel_size=2, stride=2, padding=0, dilation=1, ceil_mode=False)
        (28): Conv2d(512, 512, kernel_size=(3, 3), stride=(1, 1), padding=(1, 1))
        (29): ReLU(inplace)
        (30): Conv2d(512, 512, kernel_size=(3, 3), stride=(1, 1), padding=(1, 1))
        (31): ReLU(inplace)
        (32): Conv2d(512, 512, kernel_size=(3, 3), stride=(1, 1), padding=(1, 1))
        (33): ReLU(inplace)
        (34): Conv2d(512, 512, kernel_size=(3, 3), stride=(1, 1), padding=(1, 1))
        (35): ReLU(inplace)
        (36): MaxPool2d(kernel_size=2, stride=2, padding=0, dilation=1, ceil_mode=False)
      )
      (classifier): Sequential(
        (0): Linear(in_features=25088, out_features=4096, bias=True)
        (1): ReLU(inplace)
        (2): Dropout(p=0.5)
        (3): Linear(in_features=4096, out_features=4096, bias=True)
        (4): ReLU(inplace)
        (5): Dropout(p=0.5)
        (6): Normalize()
      )
    )
    (fflayer): Sequential(
      (0): Linear(in_features=4096, out_features=1024, bias=True)
      (1): Tanh()
    )
  )
  (word_embeddings): Embedding(55505, 300)
  (ques_channel): QuesEmbedding(
    (drop): Dropout(p=0.5)
    (lstm): LSTM(300, 512, num_layers=2)
    (fflayer): Sequential(
      (0): Linear(in_features=2048, out_features=1024, bias=True)
      (1): Tanh()
    )
    (decoder_lm): Linear(in_features=512, out_features=55505, bias=True)
  )
  (mlp): Sequential(
    (0): Linear(in_features=1024, out_features=1000, bias=True)
    (1): Dropout(p=0.5)
    (2): Tanh()
    (3): Linear(in_features=1000, out_features=1000, bias=True)
  )
  (mlp_cifar): Sequential(
    (0): Linear(in_features=1024, out_features=100, bias=True)
  )
)
config mode  train
CustomReduceLROnPlateau
begin training, multitask: False, num_users: 100, frac: 0.1, local_ep: 1
Training Model with use_gpu=True...
Epoch 0/99 - Task: vqa
----------
User 67
/home/tliu/.local/lib/python3.5/site-packages/torch/nn/modules/rnn.py:179: RuntimeWarning: RNN module weights are not part of single contiguous chunk of memory. This means they need to be compacted at every call, possibly greatly increasing memory usage. To compact weights again call flatten_parameters().
…
