normi, rmsprop

Using Norm I
VQAModel(
  (image_channel): ImageEmbedding(
    (extractor): VGG(
      (features): Sequential(
        (0): Conv2d(3, 64, kernel_size=(3, 3), stride=(1, 1), padding=(1, 1))
        (1): ReLU(inplace)
        (2): Conv2d(64, 64, kernel_size=(3, 3), stride=(1, 1), padding=(1, 1))
        (3): ReLU(inplace)
        (4): MaxPool2d(kernel_size=2, stride=2, padding=0, dilation=1, ceil_mode=False)
        (5): Conv2d(64, 128, kernel_size=(3, 3), stride=(1, 1), padding=(1, 1))
        (6): ReLU(inplace)
        (7): Conv2d(128, 128, kernel_size=(3, 3), stride=(1, 1), padding=(1, 1))
        (8): ReLU(inplace)
        (9): MaxPool2d(kernel_size=2, stride=2, padding=0, dilation=1, ceil_mode=False)
        (10): Conv2d(128, 256, kernel_size=(3, 3), stride=(1, 1), padding=(1, 1))
        (11): ReLU(inplace)
        (12): Conv2d(256, 256, kernel_size=(3, 3), stride=(1, 1), padding=(1, 1))
        (13): ReLU(inplace)
        (14): Conv2d(256, 256, kernel_size=(3, 3), stride=(1, 1), padding=(1, 1))
        (15): ReLU(inplace)
        (16): Conv2d(256, 256, kernel_size=(3, 3), stride=(1, 1), padding=(1, 1))
        (17): ReLU(inplace)
        (18): MaxPool2d(kernel_size=2, stride=2, padding=0, dilation=1, ceil_mode=False)
        (19): Conv2d(256, 512, kernel_size=(3, 3), stride=(1, 1), padding=(1, 1))
        (20): ReLU(inplace)
        (21): Conv2d(512, 512, kernel_size=(3, 3), stride=(1, 1), padding=(1, 1))
        (22): ReLU(inplace)
        (23): Conv2d(512, 512, kernel_size=(3, 3), stride=(1, 1), padding=(1, 1))
        (24): ReLU(inplace)
        (25): Conv2d(512, 512, kernel_size=(3, 3), stride=(1, 1), padding=(1, 1))
        (26): ReLU(inplace)
        (27): MaxPool2d(kernel_size=2, stride=2, padding=0, dilation=1, ceil_mode=False)
        (28): Conv2d(512, 512, kernel_size=(3, 3), stride=(1, 1), padding=(1, 1))
        (29): ReLU(inplace)
        (30): Conv2d(512, 512, kernel_size=(3, 3), stride=(1, 1), padding=(1, 1))
        (31): ReLU(inplace)
        (32): Conv2d(512, 512, kernel_size=(3, 3), stride=(1, 1), padding=(1, 1))
        (33): ReLU(inplace)
        (34): Conv2d(512, 512, kernel_size=(3, 3), stride=(1, 1), padding=(1, 1))
        (35): ReLU(inplace)
        (36): MaxPool2d(kernel_size=2, stride=2, padding=0, dilation=1, ceil_mode=False)
      )
      (classifier): Sequential(
        (0): Linear(in_features=25088, out_features=4096, bias=True)
        (1): ReLU(inplace)
        (2): Dropout(p=0.5)
        (3): Linear(in_features=4096, out_features=4096, bias=True)
        (4): ReLU(inplace)
        (5): Dropout(p=0.5)
        (6): Normalize()
      )
    )
    (fflayer): Sequential(
      (0): Linear(in_features=4096, out_features=1024, bias=True)
      (1): Tanh()
    )
  )
  (word_embeddings): Embedding(22227, 300)
  (ques_channel): QuesEmbedding(
    (lstm): LSTM(300, 512, num_layers=2)
    (fflayer): Sequential(
      (0): Linear(in_features=2048, out_features=1024, bias=True)
      (1): Tanh()
    )
  )
  (mlp): Sequential(
    (0): Linear(in_features=1024, out_features=1000, bias=True)
    (1): Dropout(p=0.5)
    (2): Tanh()
    (3): Linear(in_features=1000, out_features=1000, bias=True)
  )
)
config mode  train
CustomReduceLROnPlateau
begin training
Training Model with use_gpu=True...
Epoch 0/99
----------
step 500, running loss: 0.03088912195183081, running_corrects: 14290, example_count: 52393, acc: 27.27463592464642
step 1000, running loss: 0.02803870996450708, running_corrects: 30466, example_count: 104660, acc: 29.10949742021785
…
